simple_nn_model_MNIST.pth (torch, 409280 bytes, 4 tensors)

fc1.weight f4 [128, 784]
000000 f0 76 b1 bc b9 a4 7b bc 29 c8 a8 3a b9 a8 af bc
       -0.02166316 -0.015359097 0.0012877035 -0.021442758
000010 a7 42 7c 3c 72 7d 2e 3c 1b 24 53 3c c9 c7 54 3c
       0.0153967505 0.010650026 0.012887026 0.012987086
000020 c3 4c b3 3c 91 ec 44 bc 96 7a 86 bc 46 00 f9 ba
       0.021887189 -0.012019292 -0.016415875 -0.0018997274
000030 67 43 c6 bc b3 a5 1e 3c d6 46 d6 bc 41 29 99 bc
       -0.024202062 0.00968306 -0.026156824 -0.01869643
000040 dd 78 6e bc bc c2 d1 bc 04 0d 01 3d 91 3b d4 3c
       -0.014555183 -0.025605552 0.031506553 0.02590731
000050 c7 e4 ac bc 36 95 c3 bb f4 52 ee 3c 89 da b1 bc
       -0.021105183 -0.005968715 0.02909229 -0.021710651
000060 4c 7c ad 3c 68 4b cc 3c 8a 7e 63 bc 46 f1 59 3c
       0.021177433 0.0249383 -0.01388515 0.013302153
000070 3f da 7f 3b 99 12 95 bc d4 6d 3e 3c 4b fa 9e 3a
       0.0039039997 -0.018197345 0.011622865 0.0012129036
000080 0e 6c 28 3c 95 1e ef bc 57 88 de 3c 32 d4 c8 3c
       0.0102796685 -0.029189387 0.027164621 0.024515245
000090 5d 54 0f bd 07 6f 83 bc d3 8a e2 3c d1 fc f7 bc
       -0.034992564 -0.016044153 0.027654087 -0.03027192
0000a0 21 80 0b 3c 8b 83 25 bc cd 3f 08 bd 50 63 5f 3c
       0.008514435 -0.010102163 -0.03326397 0.013634518
0000b0 53 ce bf 3c 2b 17 21 bd b7 c4 20 bd 96 0d 85 bc
       0.023413813 -0.039328735 -0.039250102 -0.01624183
0000c0 73 94 ea 3c 80 5d 34 3c b2 de 57 3c c1 54 dc 3c
       0.02863524 0.01100862 0.013175653 0.026895883
0000d0 bd a9 c0 3c 15 c0 dd 3c 1a 25 c5 bb f0 5d f0 bc
       0.023518438 0.02706913 -0.0060163857 -0.029341668
0000e0 35 da b0 bc e8 35 9f bc b1 f4 a5 bc 11 6c 31 bc
       -0.021588424 -0.019434884 -0.02025828 -0.010828988
0000f0 21 ca d3 bc 26 bc ee 3a dd b4 07 bc ee 17 8e bb
       -0.025853219 0.0018214032 -0.008282867 -0.0043363487
000100 b8 e0 a0 bc d7 cc b0 3c 37 5c 10 bc eb cf a4 bc
       -0.019638404 0.02158205 -0.008811048 -0.020118674
000110 ec f2 0c bd 26 51 7a 3b 03 13 41 bc 6d 76 9d 3c
       -0.034411356 0.003819534 -0.011784318 0.019221509
000120 45 1e a0 3a d9 c0 f6 bc 42 c0 b2 ba 82 af ee bb
       0.0012216052 -0.030121254 -0.001363762 -0.0072841058
000130 cf 46 87 3c 1f b5 d0 3c d3 40 3c 3c 88 29 10 bd
       0.016513256 0.02547699 0.011490065 -0.035195857
000140 a8 72 8b 3b 06 2a 11 bc 9a 1b 85 3c a6 c1 4c 3c
       0.0042556114 -0.008860117 0.016248513 0.012497341
000150 b5 9b b0 bc bf 43 8c ba 41 53 bd bc d7 b4 bf 3b
       -0.021558622 -0.0010701342 -0.023110988 0.005850415
000160 eb 52 aa 3c a1 00 2a bc dd 10 95 3b b2 51 e9 bc
       0.020791491 -0.0103761265 0.0045491294 -0.028481338
000170 c5 3b 57 bc b5 13 b7 bc b0 a1 05 bd 39 ab d7 bc
       -0.013136809 -0.022348264 -0.0326249 -0.026326763
000180 a1 3c 2a 3c 68 45 00 bc b3 81 3f 3c 32 ee 9c 3c
       0.010390432 -0.007829048 0.011688638 0.01915655
000190 55 70 09 3c 38 f2 f1 bc 63 24 20 bc 9e 34 70 bc
       0.008388598 -0.029534444 -0.0097743 -0.014660982
0001a0 4b ca e9 bc af 3d 2f bd a0 9a 68 bc 19 2b 42 3b
       -0.028538844 -0.042783435 -0.014197022 0.002962774
0001b0 8b 42 55 bc db 43 52 bc e7 45 f6 3b af 27 05 3c
       -0.013016353 -0.012833561 0.007515657 0.008127137
0001c0 ea 05 4c bc c6 15 c2 3c eb cf 87 bb cd d9 e1 3c
       -0.012452582 0.023692023 -0.004144659 0.027569676
0001d0 52 14 5b bc 09 31 65 bc 90 c0 85 bb 6d 73 36 3c
       -0.013371544 -0.013988742 -0.004081793 0.011135918
0001e0 28 68 c8 bc 61 f2 93 bc fa 72 25 bc e9 96 2d 3c
       -0.024463728 -0.018059911 -0.010098213 0.010595062
0001f0 31 36 b4 3c ec 91 d0 3b 3e a5 06 bd 2e a1 ab 3c
       0.021998497 0.0063650515 -0.03287243 0.02095088
000200 a1 a1 05 3d 8a 81 d1 ba 93 36 ea bc f6 50 c9 bc
       0.032624844 -0.001598404 -0.028590476 -0.024574738
000210 0c d8 b4 bc 74 44 39 bd 71 e1 94 3c 31 0b 04 bd
       -0.022075675 -0.045231298 0.018173905 -0.032237235
000220 82 61 ed bc 13 d3 3d 3c f4 fc 06 bd 04 b3 5c bb
       -0.02897716 0.011585969 -0.03295608 -0.0033676038
000230 a3 dd f8 bb 38 dc 1c bc 80 60 8c bc 19 b0 b2 bc
       -0.0075947805 -0.009573989 -0.017135859 -0.021812486
000240 f3 9f aa bc 41 9e 0e 3b 76 17 3c 3c 4d 21 35 bc
       -0.020828223 0.0021761807 0.011480203 -0.011055303
000250 b7 d8 fa ba 29 d1 f2 bb ac a9 d4 3b 59 e1 13 3d
       -0.0019138072 -0.0074101877 0.006489953 0.03610358
000260 1a f0 61 3c a1 6a 08 3c a9 77 b8 bc 51 64 0f 3a
       0.013790155 0.008326204 -0.022517996 0.00054699654
000270 db bf 48 bc e6 6e 07 3c 13 b0 0c 3d 26 9d f0 3c
       -0.012252773 0.008266186 0.034347605 0.02937181
000280 a7 91 75 3c 1a 61 1c bd 4a ff 0c bd 40 40 d8 3c
       0.0149883395 -0.03817854 -0.03442315 0.026397824
000290 20 a8 84 3a 29 24 e0 3c 25 53 1a bd e0 a6 b6 bb
       0.0010120906 0.027360993 -0.03767695 -0.0055740923
0002a0 9c f2 0a bc 3e 09 25 3b 80 c7 07 bc b2 01 d1 3c
       -0.008480694 0.002518251 -0.008287311 0.025513504
0002b0 da a9 f1 bc e3 c4 79 bb d3 5a ee bc a1 9d 7d bc
       -0.029499937 -0.0038111738 -0.029096043 -0.015479476
0002c0 ff a5 4f 3d 30 82 0d 3c e7 9a b7 3c 1e 1c 55 3c
       0.050695416 0.008636996 0.02241273 0.013007192
0002d0 7a c1 72 bc 6a 05 4a bc e1 dd b3 3c fd c9 24 3c
       -0.014816636 -0.012330392 0.021956386 0.010057923
0002e0 b2 86 07 3d 4c 95 fa 3b ff f5 11 bc 2e 92 96 3c
       0.03308744 0.007647192 -0.008908748 0.01838025
0002f0 93 63 d3 3c 6b b1 d4 3a 85 e5 08 3d 0d 71 aa bb
       0.025804317 0.0016227191 0.033422012 -0.005201465
000300 7e f8 91 bc 30 b3 9e bc db 92 e6 bc 2c 8c 52 3c
       -0.017818686 -0.019372553 -0.028146198 0.012850802
000310 19 51 91 bc fc 27 63 bc 5e d7 eb 3c ec 1a 90 3c
       -0.017738866 -0.0138645135 0.028789219 0.017590962
000320 d9 d6 9d 3c c6 b9 fe 3c 53 de aa 3c ab 76 4e 3d
       0.019267486 0.031094443 0.020857966 0.05040614
000330 e1 b9 0e 3c 08 7d 5a 3d 4e a0 82 3c ef 1e 36 3d
       0.008711309 0.053341895 0.01594558 0.044463094
000340 0c f1 af 3b 21 fa 33 bc b1 f4 d6 bc 3b 01 1a bd
       0.005369311 -0.010984928 -0.026239725 -0.03759883
000350 b1 34 1b bd 4e 2f ad bc d4 a6 08 3d 0c b4 06 3c
       -0.037892047 -0.02114072 0.033362225 0.008221637
000360 cf db 95 3b 40 fa 07 3c 33 25 dc 3b f2 37 32 3d
       0.0045733224 0.00829941 0.0067183017 0.043510385
000370 a0 fb 74 3c db bd 87 3c 29 ee d5 3b 4a 07 25 bc
       0.01495257 0.016570022 0.006528635 -0.010072539
000380 79 23 14 bd 8d 34 99 bb c6 d4 17 bd 3f 12 0a 3d
       -0.03616664 -0.004675454 -0.03706815 0.033708807
000390 27 b4 99 3c e8 d6 0c 3c 58 92 35 3d 2c f0 d1 3c
       0.018762661 0.0085961595 0.044329017 0.025627218
0003a0 35 cc 14 3d 1a f5 0d 3d 9e 21 78 3d e4 71 40 3c
       0.03632756 0.034657575 0.060578935 0.011745904
0003b0 1b b0 f4 3c 40 2f 4b 3c 6b 7d 05 3c 81 9b d4 3c
       0.02986913 0.012401402 0.008147578 0.025953056
0003c0 29 84 19 3d 9e 6f e3 3c 29 82 5e 3d 63 35 84 3d
       0.037479553 0.027763184 0.05432335 0.06455495
0003d0 79 5d 8e 3c 65 82 81 3c 16 10 88 3d 38 f2 60 3d
       0.017378556 0.015809247 0.06643693 0.054918498
0003e0 22 b0 48 3a c6 46 2d 3d 84 8f dd 3c 50 e3 af 3a
       0.00076556404 0.042303823 0.027045973 0.0013419185
0003f0 f2 db 80 39 b4 2a 1f bd 19 16 73 bc 13 b0 25 3c
       0.00024577935 -0.038859084 -0.014836811 0.01011278

fc1.bias f4 [128]
000000 aa 84 43 3c 9f 5c 4a bc 72 cf 67 bc 32 fc 9c bc
       0.011933485 -0.012351184 -0.01414858 -0.019163225
000010 df e7 93 bc f7 4e 6a 3b f8 cb 0c 3c 83 78 8b bc
       -0.0180549 0.0035752633 0.008593552 -0.017025238
000020 d2 9f 3c bc e3 32 e3 3c c3 c8 0e 3d 59 64 1f 3c
       -0.0115127135 0.027734226 0.03485943 0.009728515
000030 f9 9b 2b 3c 14 d4 ef 3c 69 66 a1 3c 5d 34 eb 3a
       0.0104741985 0.029275931 0.019702153 0.0017944683
000040 ec c9 61 3c 8a 27 b4 bc 19 43 d7 bc 29 80 15 3d
       0.013781052 -0.02199151 -0.026277112 0.036499176
000050 e4 1e 56 bc 90 9d 82 3a 9c 11 6f 3c 04 86 12 bc
       -0.013068888 0.000996517 0.014591601 -0.008943085
000060 7b 42 16 3d f3 1b 21 bc 9c c1 7b 3c 9c 9e 2c bc
       0.036684494 -0.009833324 0.015365984 -0.010535862
000070 a9 08 b3 bc 4f 09 1c 3d 66 60 ff 3b 18 ce dd 3c
       -0.021854715 0.038094815 0.007793474 0.027075812
000080 a6 c2 e4 3c be 07 16 3c a0 da 99 bb 9d b8 ea ba
       0.027924847 0.009157119 -0.0046952516 -0.0017907802
000090 b6 d8 cc bb bf b9 e3 3c 94 b3 d8 ba 76 41 00 3d
       -0.00625142 0.027798532 -0.0016533011 0.03131243
0000a0 45 0f 84 3c 15 f3 6d bc 5e 65 f0 3c fd ed 65 bc
       0.016120562 -0.014523287 0.02934521 -0.014033792
0000b0 cb ca 04 3d 8c 06 aa 3c 20 86 90 3c 28 80 59 bc
       0.03241996 0.020755075 0.01764208 -0.013275184
0000c0 ab 40 19 3d eb e3 99 3c cd 4f 22 bb c1 7c d3 bb
       0.037415188 0.018785438 -0.0024766803 -0.006454081
0000d0 88 0a 10 bd 1b 41 ed 3c cb d9 24 bc ea 59 73 3c
       -0.035166293 0.028961709 -0.0100616915 0.01485298
0000e0 3c 6a da bc b7 be 0d 3b 5d e6 3a bb 0d 03 ca bc
       -0.026661985 0.0021628567 -0.0028518655 -0.024659658
0000f0 32 7c 05 3c 6f d2 e2 bb 27 9f 12 3d 34 03 89 bc
       0.008147286 -0.0069220583 0.03579631 -0.01672516
000100 62 bc 27 3d 96 9f f3 3b bb ed ca 3c b1 a6 4b bc
       0.04095114 0.0074347956 0.024771562 -0.012429879
000110 f5 86 88 3b 36 51 9e bc 00 29 85 3c 1c a9 07 3d
       0.0041664788 -0.019325834 0.016254902 0.03312026
000120 b6 ca 95 3b 48 48 95 bc 09 8a e2 3c dc 88 e7 bb
       0.004571284 -0.018222943 0.02765371 -0.0070658755
000130 79 32 57 3c 88 10 f8 ba e7 2c 4c bc 46 87 40 3b
       0.013134592 -0.0018925825 -0.012461877 0.0029377504
000140 8a fa 00 3c 9c 89 80 bc a2 34 e1 3a 75 38 d1 3c
       0.007872233 -0.015690617 0.0017181823 0.025539616
000150 5e 96 f4 3c 83 e3 8d bc a6 2b 11 3d f5 2a b1 3c
       0.029856857 -0.0173204 0.035442017 0.021626929
000160 e9 16 c2 bc 1e 7b 9e 3b f0 19 0f 3d 3a bb 73 bb
       -0.023692565 0.004836454 0.034936845 -0.0037190453
000170 04 cc 5d 3b d0 e5 a0 bc 26 49 e0 bc 27 86 09 3d
       0.0033843527 -0.019640833 -0.02737863 0.033575203
000180 38 38 86 bc e4 00 b5 bb 30 4d 09 3d 41 f6 fd 3b
       -0.016384229 -0.005523788 0.033520877 0.007750303
000190 47 e4 d5 3c 12 be c4 3c 7a 61 db 3c 28 09 b2 3b
       0.026109828 0.024016414 0.026779879 0.0054332204
0001a0 79 5b 11 3c 2d 22 02 3d 54 8f 8c bc 54 55 98 ba
       0.008871906 0.031770874 -0.017158188 -0.001162211
0001b0 b5 b3 fb bc 58 11 36 bc 83 3b d2 3c ff e3 2f bc
       -0.03072534 -0.0111125335 0.025663143 -0.010735511
0001c0 61 c8 02 bd eb 23 ea 3c bd cc f6 3c 30 62 3b bc
       -0.031929377 0.02858158 0.030126924 -0.011436984
0001d0 3a 73 25 3d 44 15 d7 3c 80 d1 7c bc 68 af ee 3c
       0.04039309 0.026255257 -0.015430808 0.029136375
0001e0 ff c9 c9 bb 55 ed b5 3c 08 b3 d6 3c 57 25 eb bc
       -0.006158113 0.022207895 0.026208416 -0.028704328
0001f0 79 ee dd 3c c5 5c 51 3b ef 01 5f 3c 9b 13 cd bc
       0.027091252 0.0031946164 0.013611301 -0.025033763

fc2.weight f4 [10, 128]
000000 f3 b5 3f 3e 89 35 b1 bd b5 e9 92 3d e9 39 12 3d
       0.18721752 -0.08652789 0.07173482 0.03569976
000010 0a 46 b7 3d 0f 85 00 be 4b b8 b0 bd 64 0f 5e bd
       0.08948906 -0.12550758 -0.08628901 -0.054213896
000020 62 02 13 bd 9d 6c 4e 3d d1 1f 14 be 7e 7a 30 be
       -0.035890944 0.05039655 -0.14465262 -0.17234227
000030 ce 35 bb 3c fc e0 56 bd 56 8a 3e bc 62 b3 19 be
       0.022852805 -0.052460656 -0.011629662 -0.15009835
000040 5e 69 81 3e 4c 31 d8 3d cb 94 86 bc f2 4c 36 3e
       0.252757 0.10556278 -0.016428372 0.1780279
000050 e0 53 66 bd 13 31 13 3d f5 2a 95 3d a9 2f 4e be
       -0.056232333 0.035935473 0.07283584 -0.20135368
000060 80 51 4d 3e f7 7e 42 bc 5f 86 61 bd b2 88 b3 3d
       0.20050621 -0.011871091 -0.055059787 0.08766307
000070 3e fd 28 3c b6 90 87 3d fa 8d 95 3c 9b 4d 15 3d
       0.010314284 0.06619398 0.018256176 0.036450963
000080 23 21 95 bc 4d a8 45 bd ce 9b 94 bd ef b7 5f be
       -0.018204277 -0.048256207 -0.0725628 -0.21847509
000090 c5 39 5f be 57 15 a5 bc 84 1c 86 3e 0d 78 f2 bc
       -0.21799381 -0.020151777 0.2619363 -0.02959826
0000a0 a0 8d 85 bd 33 db df bd 80 8a cb 3c a6 1a 97 bd
       -0.065211535 -0.10930481 0.024846315 -0.0737813
0000b0 55 ba 17 bd 19 e9 6a bc 23 30 fb 3c 66 24 91 3c
       -0.037042934 -0.014337801 0.030662602 0.017717551
0000c0 4d 3e d6 bd cd 63 72 bb c0 04 4c bc cb af ce bd
       -0.10461102 -0.0036985755 -0.012452304 -0.100921236
0000d0 19 30 1d bd 83 97 07 be 61 1a 72 3e 01 21 10 be
       -0.038375948 -0.13241391 0.23642875 -0.1407509
0000e0 7c 85 ad bd 3d 79 28 be 91 93 5d 3d a2 f6 7f bd
       -0.08472726 -0.16452499 0.05409581 -0.062491067
0000f0 f3 07 b1 3d 8f d7 27 be 6c ce 9e 3e bd 22 d4 3d
       0.08644094 -0.16390823 0.31016862 0.10358188
000100 00 87 1f bc e6 ab 51 bd 9b 4d a3 3d 34 54 73 3e
       -0.009736776 -0.051189326 0.079737864 0.2376259
000110 64 30 af bd 28 ce 9b 3d 9b 51 ae bd 39 6c 80 3d
       -0.08554152 0.076076806 -0.08511659 0.06270642
000120 83 ba 19 3e c7 fd a6 3d ba da 1f bc cf 50 56 be
       0.15012555 0.08153873 -0.009756738 -0.20929264
000130 58 5d a0 3d 80 81 b5 bc 24 0b 02 3e 42 7e e5 3c
       0.07830304 -0.022156477 0.12699562 0.028014306
000140 b8 e1 42 bc e1 53 96 bd 9f f5 9b bd 04 6b 62 be
       -0.011894636 -0.073402174 -0.07615208 -0.22111136
000150 b3 8d 82 3d 61 5f 3c 3e db 8c af bd 06 5d 36 3e
       0.06374683 0.18395759 -0.08571788 0.17808923
000160 a8 ea b1 bd 31 5a 47 3e 6b 4a 3d be f5 81 23 3d
       -0.08687335 0.19467999 -0.1848542 0.03991886
000170 2b 91 14 3d c6 01 44 bd 89 64 3c be 1d 93 b4 bd
       0.036271255 -0.047853254 -0.18397726 -0.08817122
000180 63 3a 79 3d 9b 39 87 3e 9b de 5b bd c8 6e 85 bd
       0.060846698 0.26411137 -0.05367909 -0.065152705
000190 15 b0 9e 3d 31 82 ea bd ff 06 0e bc 57 16 f7 bb
       0.07748429 -0.11450613 -0.00866866 -0.007540505
0001a0 3f f4 b3 bd a5 6c 84 bd dd 97 9f bd e5 66 d0 bd
       -0.087868206 -0.06466035 -0.077926375 -0.101758756
0001b0 41 42 a3 3b aa 38 96 be 13 17 68 b9 76 f1 4a bc
       0.0049822633 -0.29340106 -0.0002213384 -0.01238667
0001c0 39 15 77 3d 7c 73 29 3e d8 a5 72 3c 2b 94 61 bd
       0.060322974 0.1654796 0.014810048 -0.055072945
0001d0 47 76 7e bc 52 29 c7 3c 47 12 a7 3d d2 0c 79 3c
       -0.015531129 0.024311695 0.08157783 0.0152008105
0001e0 fc cd 50 3d bc 81 4a bd f2 54 50 3e 92 af 15 be
       0.050977692 -0.04944013 0.20344904 -0.14617756
0001f0 14 9c 37 3e dc 3f 36 3d 3f e5 a0 3d 43 5b 6b be
       0.17930633 0.044494495 0.07856225 -0.22984032
000200 90 d9 6f be eb 50 99 3d f3 90 76 3d 6f e3 03 be
       -0.23422837 0.07486137 0.060196828 -0.12879728
000210 bb d1 bc bc 79 bb 65 bd 35 5f bb bd 27 07 ee 3d
       -0.023049226 -0.05608699 -0.09149019 0.11622458
000220 35 f9 a5 3d 26 a3 a1 3d 77 f8 b9 3d 9f 36 bf bd
       0.08104173 0.07892446 0.09080594 -0.0933659
000230 d7 a4 b0 bc 8a a5 80 3d bb 4a f2 3c 35 3b 8e bd
       -0.021562977 0.06281574 0.02957665 -0.069448866
000240 32 4b 05 be dc 22 0a bd 99 0e 92 3d 08 54 8d be
       -0.13016966 -0.03372465 0.071316905 -0.27603173
000250 74 07 f7 3d b2 28 03 bd c3 e8 59 3d 8b cd 20 3e
       0.120619684 -0.032021232 0.053200494 0.15703408
000260 70 b8 e7 3c e2 48 9a bd 7f d5 3f 3c 33 1f 04 bd
       0.028286189 -0.075334325 0.011708616 -0.032256316
000270 9f 9e 37 bd d5 18 8c bd 90 f2 ae 3d 5d 27 ec bd
       -0.044829007 -0.06840674 0.08542359 -0.115309455
000280 4c b3 95 3d 8c 3f 56 bd a0 c0 9e bd fb 7f 1a be
       0.07309589 -0.052306697 -0.07751584 -0.15087883
000290 f3 7e 01 3e 79 51 87 be 69 7f 12 be b4 d8 03 be
       0.12646084 -0.26429346 -0.14306416 -0.12875634
0002a0 24 7d 22 be 3a 8b d0 3c 0f 7d 70 be 3a 57 b2 bd
       -0.1586805 0.025457013 -0.23485206 -0.087080434
0002b0 27 3e 2b bd b3 be a4 bd c9 20 58 bd cd fc 00 3e
       -0.04180732 -0.080441855 -0.05276564 0.12596436
0002c0 de d0 9e bd a9 69 bd 3c bf 85 f8 bc 67 23 46 3e
       -0.07754682 0.023121672 -0.030337213 0.19349442
0002d0 7c 38 32 3d 2b 3c d6 3b e9 b3 43 be 3b 57 e9 bb
       0.0435109 0.0065379343 -0.19111599 -0.0071209944
0002e0 a1 a1 63 bd 78 b5 5d 3c b8 aa fe bd b4 3f a9 3d
       -0.055574063 0.013532035 -0.12434906 0.082641035
0002f0 1c f9 1a bb ca 49 2c bd 4d 73 3f be fd bf 51 be
       -0.0023647016 -0.04206256 -0.18696328 -0.20483394
000300 52 e1 b8 bd b8 b9 84 bd bc 05 dc bd b4 7f 25 bc
       -0.090273514 -0.064807355 -0.10743281 -0.010101248
000310 89 00 3c 3e 88 9d aa bd ff df b3 bd 91 a3 58 3d
       0.18359579 -0.08330828 -0.08782958 0.052890364
000320 f1 d5 c2 3d f2 96 24 3d 99 db ae 3d 29 c7 11 3e
       0.09513462 0.040183015 0.08537979 0.1423613
000330 24 1c 46 3e 8b 0f 4a be 82 b3 31 be 7a ae 55 3e
       0.19346672 -0.19732492 -0.17353633 0.20867339
000340 6b c2 67 bc 3f 03 79 3d e0 07 16 bb 60 1b 3a 3e
       -0.014145474 0.06079411 -0.0022892877 0.18174505
000350 0f f6 af bd 57 39 5e be f3 b0 ae 3d db b5 87 bd
       -0.08591854 -0.21701561 0.08529844 -0.06626483
000360 57 db 36 3d d1 5f 7a bd fc 13 9d 3e 1e 04 94 3d
       0.044642773 -0.061126534 0.3067931 0.07227348
000370 f0 22 83 bd c5 18 93 3d d6 05 63 3a 0f 87 b3 bb
       -0.06403148 0.07182459 0.00086602324 -0.0054787467
000380 82 cb c4 3d 4f 6b 43 be 70 2a bb 3d dc d5 01 3e
       0.096091285 -0.19083904 0.09138954 0.12679237
000390 c9 e1 ee bd 3e 2f e4 bd ed 8d a0 3d 11 48 75 3d
       -0.11664159 -0.11141823 0.0783957 0.05988318
0003a0 39 cb 2e 3e 0d 3d 45 3d a0 58 57 be dd 19 83 3e
       0.17069711 0.048153926 -0.21029902 0.2560567
0003b0 7a ab 9a bd ab 9b 4c 3e 4f f9 70 bd f2 f0 c4 3d
       -0.07552238 0.19981258 -0.05883151 0.09616269
0003c0 79 32 8d bd a2 4c 70 3d 50 66 19 bd a2 04 2f 3d
       -0.068943925 0.058666833 -0.03745109 0.042729028
0003d0 36 f6 21 bd ae f7 71 bc ba 94 d1 bd 81 e7 69 be
       -0.039541446 -0.014768524 -0.102334455 -0.22842218
0003e0 cc fe 19 bd c1 e4 9e bd d3 9b 0a 3d a4 6d 10 3e
       -0.03759651 -0.07758475 0.03384001 0.14104325
0003f0 08 00 3c be 92 22 7e 3d f0 c2 f3 3a a0 16 a9 bd
       -0.18359387 0.062044688 0.0018597525 -0.082562685

fc2.bias f4 [10]
000000 30 9c 52 bd 45 09 bf bd a8 e4 4d 3d 5d 38 9b 3c
       -0.051418483 -0.0932794 0.05026689 0.018947775
000010 a6 fa b8 bd f0 43 a6 bc a2 12 a3 bb bc 55 32 3d
       -0.090321824 -0.020296067 -0.0049765864 0.043538794
000020 56 2e 8b 3c f2 63 bd bd
       0.016989868 -0.09247579
